root-- VOC2007
Pruning round 1, load model from models/ep1000ws1pr/mb1-ssd-lite-Epoch-945-Loss-3.2492578540529524.pth
SSD(
  (base_net): Sequential(
    (0): Sequential(
      (0): Conv2d(3, 6, kernel_size=(3, 3), stride=(2, 2), padding=(1, 1), bias=False)
      (1): BatchNorm2d(6, eps=1e-05, momentum=0.1, affine=True, track_running_stats=True)
      (2): ReLU(inplace=True)
    )
    (1): Sequential(
      (0): Conv2d(6, 6, kernel_size=(3, 3), stride=(1, 1), padding=(1, 1), groups=6, bias=False)
      (1): BatchNorm2d(6, eps=1e-05, momentum=0.1, affine=True, track_running_stats=True)
      (2): ReLU(inplace=True)
      (3): Conv2d(6, 11, kernel_size=(1, 1), stride=(1, 1), bias=False)
      (4): BatchNorm2d(11, eps=1e-05, momentum=0.1, affine=True, track_running_stats=True)
      (5): ReLU(inplace=True)
    )
    (2): Sequential(
      (0): Conv2d(11, 11, kernel_size=(3, 3), stride=(2, 2), padding=(1, 1), groups=11, bias=False)
      (1): BatchNorm2d(11, eps=1e-05, momentum=0.1, affine=True, track_running_stats=True)
      (2): ReLU(inplace=True)
      (3): Conv2d(11, 21, kernel_size=(1, 1), stride=(1, 1), bias=False)
      (4): BatchNorm2d(21, eps=1e-05, momentum=0.1, affine=True, track_running_stats=True)
      (5): ReLU(inplace=True)
    )
    (3): Sequential(
      (0): Conv2d(21, 21, kernel_size=(3, 3), stride=(1, 1), padding=(1, 1), groups=21, bias=False)
      (1): BatchNorm2d(21, eps=1e-05, momentum=0.1, affine=True, track_running_stats=True)
      (2): ReLU(inplace=True)
      (3): Conv2d(21, 21, kernel_size=(1, 1), stride=(1, 1), bias=False)
      (4): BatchNorm2d(21, eps=1e-05, momentum=0.1, affine=True, track_running_stats=True)
      (5): ReLU(inplace=True)
    )
    (4): Sequential(
      (0): Conv2d(21, 21, kernel_size=(3, 3), stride=(2, 2), padding=(1, 1), groups=21, bias=False)
      (1): BatchNorm2d(21, eps=1e-05, momentum=0.1, affine=True, track_running_stats=True)
      (2): ReLU(inplace=True)
      (3): Conv2d(21, 42, kernel_size=(1, 1), stride=(1, 1), bias=False)
      (4): BatchNorm2d(42, eps=1e-05, momentum=0.1, affine=True, track_running_stats=True)
      (5): ReLU(inplace=True)
    )
    (5): Sequential(
      (0): Conv2d(42, 42, kernel_size=(3, 3), stride=(1, 1), padding=(1, 1), groups=42, bias=False)
      (1): BatchNorm2d(42, eps=1e-05, momentum=0.1, affine=True, track_running_stats=True)
      (2): ReLU(inplace=True)
      (3): Conv2d(42, 42, kernel_size=(1, 1), stride=(1, 1), bias=False)
      (4): BatchNorm2d(42, eps=1e-05, momentum=0.1, affine=True, track_running_stats=True)
      (5): ReLU(inplace=True)
    )
    (6): Sequential(
      (0): Conv2d(42, 42, kernel_size=(3, 3), stride=(2, 2), padding=(1, 1), groups=42, bias=False)
      (1): BatchNorm2d(42, eps=1e-05, momentum=0.1, affine=True, track_running_stats=True)
      (2): ReLU(inplace=True)
      (3): Conv2d(42, 82, kernel_size=(1, 1), stride=(1, 1), bias=False)
      (4): BatchNorm2d(82, eps=1e-05, momentum=0.1, affine=True, track_running_stats=True)
      (5): ReLU(inplace=True)
    )
    (7): Sequential(
      (0): Conv2d(82, 82, kernel_size=(3, 3), stride=(1, 1), padding=(1, 1), groups=82, bias=False)
      (1): BatchNorm2d(82, eps=1e-05, momentum=0.1, affine=True, track_running_stats=True)
      (2): ReLU(inplace=True)
      (3): Conv2d(82, 82, kernel_size=(1, 1), stride=(1, 1), bias=False)
      (4): BatchNorm2d(82, eps=1e-05, momentum=0.1, affine=True, track_running_stats=True)
      (5): ReLU(inplace=True)
    )
    (8): Sequential(
      (0): Conv2d(82, 82, kernel_size=(3, 3), stride=(1, 1), padding=(1, 1), groups=82, bias=False)
      (1): BatchNorm2d(82, eps=1e-05, momentum=0.1, affine=True, track_running_stats=True)
      (2): ReLU(inplace=True)
      (3): Conv2d(82, 82, kernel_size=(1, 1), stride=(1, 1), bias=False)
      (4): BatchNorm2d(82, eps=1e-05, momentum=0.1, affine=True, track_running_stats=True)
      (5): ReLU(inplace=True)
    )
    (9): Sequential(
      (0): Conv2d(82, 82, kernel_size=(3, 3), stride=(1, 1), padding=(1, 1), groups=82, bias=False)
      (1): BatchNorm2d(82, eps=1e-05, momentum=0.1, affine=True, track_running_stats=True)
      (2): ReLU(inplace=True)
      (3): Conv2d(82, 82, kernel_size=(1, 1), stride=(1, 1), bias=False)
      (4): BatchNorm2d(82, eps=1e-05, momentum=0.1, affine=True, track_running_stats=True)
      (5): ReLU(inplace=True)
    )
    (10): Sequential(
      (0): Conv2d(82, 82, kernel_size=(3, 3), stride=(1, 1), padding=(1, 1), groups=82, bias=False)
      (1): BatchNorm2d(82, eps=1e-05, momentum=0.1, affine=True, track_running_stats=True)
      (2): ReLU(inplace=True)
      (3): Conv2d(82, 82, kernel_size=(1, 1), stride=(1, 1), bias=False)
      (4): BatchNorm2d(82, eps=1e-05, momentum=0.1, affine=True, track_running_stats=True)
      (5): ReLU(inplace=True)
    )
    (11): Sequential(
      (0): Conv2d(82, 82, kernel_size=(3, 3), stride=(1, 1), padding=(1, 1), groups=82, bias=False)
      (1): BatchNorm2d(82, eps=1e-05, momentum=0.1, affine=True, track_running_stats=True)
      (2): ReLU(inplace=True)
      (3): Conv2d(82, 14, kernel_size=(1, 1), stride=(1, 1), bias=False)
      (4): BatchNorm2d(14, eps=1e-05, momentum=0.1, affine=True, track_running_stats=True)
      (5): ReLU(inplace=True)
    )
    (12): Sequential(
      (0): Conv2d(14, 14, kernel_size=(3, 3), stride=(2, 2), padding=(1, 1), groups=14, bias=False)
      (1): BatchNorm2d(14, eps=1e-05, momentum=0.1, affine=True, track_running_stats=True)
      (2): ReLU(inplace=True)
      (3): Conv2d(14, 164, kernel_size=(1, 1), stride=(1, 1), bias=False)
      (4): BatchNorm2d(164, eps=1e-05, momentum=0.1, affine=True, track_running_stats=True)
      (5): ReLU(inplace=True)
    )
    (13): Sequential(
      (0): Conv2d(164, 164, kernel_size=(3, 3), stride=(1, 1), padding=(1, 1), groups=164, bias=False)
      (1): BatchNorm2d(164, eps=1e-05, momentum=0.1, affine=True, track_running_stats=True)
      (2): ReLU(inplace=True)
      (3): Conv2d(164, 66, kernel_size=(1, 1), stride=(1, 1), bias=False)
      (4): BatchNorm2d(66, eps=1e-05, momentum=0.1, affine=True, track_running_stats=True)
      (5): ReLU(inplace=True)
    )
  )
  (extras): ModuleList(
    (0): Sequential(
      (0): Conv2d(66, 42, kernel_size=(1, 1), stride=(1, 1))
      (1): ReLU()
      (2): Sequential(
        (0): Conv2d(42, 42, kernel_size=(3, 3), stride=(2, 2), padding=(1, 1), groups=42)
        (1): ReLU()
        (2): Conv2d(42, 33, kernel_size=(1, 1), stride=(1, 1))
      )
    )
    (1): Sequential(
      (0): Conv2d(33, 21, kernel_size=(1, 1), stride=(1, 1))
      (1): ReLU()
      (2): Sequential(
        (0): Conv2d(21, 21, kernel_size=(3, 3), stride=(2, 2), padding=(1, 1), groups=21)
        (1): ReLU()
        (2): Conv2d(21, 17, kernel_size=(1, 1), stride=(1, 1))
      )
    )
    (2): Sequential(
      (0): Conv2d(17, 21, kernel_size=(1, 1), stride=(1, 1))
      (1): ReLU()
      (2): Sequential(
        (0): Conv2d(21, 21, kernel_size=(3, 3), stride=(2, 2), padding=(1, 1), groups=21)
        (1): ReLU()
        (2): Conv2d(21, 17, kernel_size=(1, 1), stride=(1, 1))
      )
    )
    (3): Sequential(
      (0): Conv2d(17, 21, kernel_size=(1, 1), stride=(1, 1))
      (1): ReLU()
      (2): Sequential(
        (0): Conv2d(21, 21, kernel_size=(3, 3), stride=(2, 2), padding=(1, 1), groups=21)
        (1): ReLU()
        (2): Conv2d(21, 103, kernel_size=(1, 1), stride=(1, 1))
      )
    )
  )
  (classification_headers): ModuleList(
    (0): Sequential(
      (0): Conv2d(14, 14, kernel_size=(3, 3), stride=(1, 1), padding=(1, 1), groups=14)
      (1): ReLU()
      (2): Conv2d(14, 12, kernel_size=(1, 1), stride=(1, 1))
    )
    (1): Sequential(
      (0): Conv2d(66, 66, kernel_size=(3, 3), stride=(1, 1), padding=(1, 1), groups=66)
      (1): ReLU()
      (2): Conv2d(66, 12, kernel_size=(1, 1), stride=(1, 1))
    )
    (2): Sequential(
      (0): Conv2d(33, 33, kernel_size=(3, 3), stride=(1, 1), padding=(1, 1), groups=33)
      (1): ReLU()
      (2): Conv2d(33, 12, kernel_size=(1, 1), stride=(1, 1))
    )
    (3): Sequential(
      (0): Conv2d(17, 17, kernel_size=(3, 3), stride=(1, 1), padding=(1, 1), groups=17)
      (1): ReLU()
      (2): Conv2d(17, 12, kernel_size=(1, 1), stride=(1, 1))
    )
    (4): Sequential(
      (0): Conv2d(17, 17, kernel_size=(3, 3), stride=(1, 1), padding=(1, 1), groups=17)
      (1): ReLU()
      (2): Conv2d(17, 12, kernel_size=(1, 1), stride=(1, 1))
    )
    (5): Conv2d(103, 12, kernel_size=(1, 1), stride=(1, 1))
  )
  (regression_headers): ModuleList(
    (0): Sequential(
      (0): Conv2d(14, 14, kernel_size=(3, 3), stride=(1, 1), padding=(1, 1), groups=14)
      (1): ReLU()
      (2): Conv2d(14, 24, kernel_size=(1, 1), stride=(1, 1))
    )
    (1): Sequential(
      (0): Conv2d(66, 66, kernel_size=(3, 3), stride=(1, 1), padding=(1, 1), groups=66)
      (1): ReLU()
      (2): Conv2d(66, 24, kernel_size=(1, 1), stride=(1, 1))
    )
    (2): Sequential(
      (0): Conv2d(33, 33, kernel_size=(3, 3), stride=(1, 1), padding=(1, 1), groups=33)
      (1): ReLU()
      (2): Conv2d(33, 24, kernel_size=(1, 1), stride=(1, 1))
    )
    (3): Sequential(
      (0): Conv2d(17, 17, kernel_size=(3, 3), stride=(1, 1), padding=(1, 1), groups=17)
      (1): ReLU()
      (2): Conv2d(17, 24, kernel_size=(1, 1), stride=(1, 1))
    )
    (4): Sequential(
      (0): Conv2d(17, 17, kernel_size=(3, 3), stride=(1, 1), padding=(1, 1), groups=17)
      (1): ReLU()
      (2): Conv2d(17, 24, kernel_size=(1, 1), stride=(1, 1))
    )
    (5): Conv2d(103, 24, kernel_size=(1, 1), stride=(1, 1))
  )
  (source_layer_add_ons): ModuleList()
)
Saved prune model models/prunefromws1per0.7lr0.01ep1800/prune.pth
Number of Parameters: 0.1M
Epoch: 0, Validation Loss: 5.2062, Validation Regression Loss 2.9176, Validation Classification Loss: 2.2886
Saved model models/prunefromws1per0.7lr0.01ep1800/Epoch-0-Loss-5.206220286233084.pth
Epoch: 10, Validation Loss: 4.7283, Validation Regression Loss 2.4645, Validation Classification Loss: 2.2638
…
