root-- VOC2007
Pruning round 1, load model from models/ws0.15bs16/mb1-ssd-lite-025extra-Epoch-1599-Loss-3.460315772465297.pth
SSD(
  (base_net): Sequential(
    (0): Sequential(
      (0): Conv2d(3, 4, kernel_size=(3, 3), stride=(2, 2), padding=(1, 1), bias=False)
      (1): BatchNorm2d(4, eps=1e-05, momentum=0.1, affine=True, track_running_stats=True)
      (2): ReLU(inplace=True)
    )
    (1): Sequential(
      (0): Conv2d(4, 4, kernel_size=(3, 3), stride=(1, 1), padding=(1, 1), groups=4, bias=False)
      (1): BatchNorm2d(4, eps=1e-05, momentum=0.1, affine=True, track_running_stats=True)
      (2): ReLU(inplace=True)
      (3): Conv2d(4, 7, kernel_size=(1, 1), stride=(1, 1), bias=False)
      (4): BatchNorm2d(7, eps=1e-05, momentum=0.1, affine=True, track_running_stats=True)
      (5): ReLU(inplace=True)
    )
    (2): Sequential(
      (0): Conv2d(7, 7, kernel_size=(3, 3), stride=(2, 2), padding=(1, 1), groups=7, bias=False)
      (1): BatchNorm2d(7, eps=1e-05, momentum=0.1, affine=True, track_running_stats=True)
      (2): ReLU(inplace=True)
      (3): Conv2d(7, 13, kernel_size=(1, 1), stride=(1, 1), bias=False)
      (4): BatchNorm2d(13, eps=1e-05, momentum=0.1, affine=True, track_running_stats=True)
      (5): ReLU(inplace=True)
    )
    (3): Sequential(
      (0): Conv2d(13, 13, kernel_size=(3, 3), stride=(1, 1), padding=(1, 1), groups=13, bias=False)
      (1): BatchNorm2d(13, eps=1e-05, momentum=0.1, affine=True, track_running_stats=True)
      (2): ReLU(inplace=True)
      (3): Conv2d(13, 13, kernel_size=(1, 1), stride=(1, 1), bias=False)
      (4): BatchNorm2d(13, eps=1e-05, momentum=0.1, affine=True, track_running_stats=True)
      (5): ReLU(inplace=True)
    )
    (4): Sequential(
      (0): Conv2d(13, 13, kernel_size=(3, 3), stride=(2, 2), padding=(1, 1), groups=13, bias=False)
      (1): BatchNorm2d(13, eps=1e-05, momentum=0.1, affine=True, track_running_stats=True)
      (2): ReLU(inplace=True)
      (3): Conv2d(13, 25, kernel_size=(1, 1), stride=(1, 1), bias=False)
      (4): BatchNorm2d(25, eps=1e-05, momentum=0.1, affine=True, track_running_stats=True)
      (5): ReLU(inplace=True)
    )
    (5): Sequential(
      (0): Conv2d(25, 25, kernel_size=(3, 3), stride=(1, 1), padding=(1, 1), groups=25, bias=False)
      (1): BatchNorm2d(25, eps=1e-05, momentum=0.1, affine=True, track_running_stats=True)
      (2): ReLU(inplace=True)
      (3): Conv2d(25, 25, kernel_size=(1, 1), stride=(1, 1), bias=False)
      (4): BatchNorm2d(25, eps=1e-05, momentum=0.1, affine=True, track_running_stats=True)
      (5): ReLU(inplace=True)
    )
    (6): Sequential(
      (0): Conv2d(25, 25, kernel_size=(3, 3), stride=(2, 2), padding=(1, 1), groups=25, bias=False)
      (1): BatchNorm2d(25, eps=1e-05, momentum=0.1, affine=True, track_running_stats=True)
      (2): ReLU(inplace=True)
      (3): Conv2d(25, 50, kernel_size=(1, 1), stride=(1, 1), bias=False)
      (4): BatchNorm2d(50, eps=1e-05, momentum=0.1, affine=True, track_running_stats=True)
      (5): ReLU(inplace=True)
    )
    (7): Sequential(
      (0): Conv2d(50, 50, kernel_size=(3, 3), stride=(1, 1), padding=(1, 1), groups=50, bias=False)
      (1): BatchNorm2d(50, eps=1e-05, momentum=0.1, affine=True, track_running_stats=True)
      (2): ReLU(inplace=True)
      (3): Conv2d(50, 50, kernel_size=(1, 1), stride=(1, 1), bias=False)
      (4): BatchNorm2d(50, eps=1e-05, momentum=0.1, affine=True, track_running_stats=True)
      (5): ReLU(inplace=True)
    )
    (8): Sequential(
      (0): Conv2d(50, 50, kernel_size=(3, 3), stride=(1, 1), padding=(1, 1), groups=50, bias=False)
      (1): BatchNorm2d(50, eps=1e-05, momentum=0.1, affine=True, track_running_stats=True)
      (2): ReLU(inplace=True)
      (3): Conv2d(50, 50, kernel_size=(1, 1), stride=(1, 1), bias=False)
      (4): BatchNorm2d(50, eps=1e-05, momentum=0.1, affine=True, track_running_stats=True)
      (5): ReLU(inplace=True)
    )
    (9): Sequential(
      (0): Conv2d(50, 50, kernel_size=(3, 3), stride=(1, 1), padding=(1, 1), groups=50, bias=False)
      (1): BatchNorm2d(50, eps=1e-05, momentum=0.1, affine=True, track_running_stats=True)
      (2): ReLU(inplace=True)
      (3): Conv2d(50, 50, kernel_size=(1, 1), stride=(1, 1), bias=False)
      (4): BatchNorm2d(50, eps=1e-05, momentum=0.1, affine=True, track_running_stats=True)
      (5): ReLU(inplace=True)
    )
    (10): Sequential(
      (0): Conv2d(50, 50, kernel_size=(3, 3), stride=(1, 1), padding=(1, 1), groups=50, bias=False)
      (1): BatchNorm2d(50, eps=1e-05, momentum=0.1, affine=True, track_running_stats=True)
      (2): ReLU(inplace=True)
      (3): Conv2d(50, 50, kernel_size=(1, 1), stride=(1, 1), bias=False)
      (4): BatchNorm2d(50, eps=1e-05, momentum=0.1, affine=True, track_running_stats=True)
      (5): ReLU(inplace=True)
    )
    (11): Sequential(
      (0): Conv2d(50, 50, kernel_size=(3, 3), stride=(1, 1), padding=(1, 1), groups=50, bias=False)
      (1): BatchNorm2d(50, eps=1e-05, momentum=0.1, affine=True, track_running_stats=True)
      (2): ReLU(inplace=True)
      (3): Conv2d(50, 32, kernel_size=(1, 1), stride=(1, 1), bias=False)
      (4): BatchNorm2d(32, eps=1e-05, momentum=0.1, affine=True, track_running_stats=True)
      (5): ReLU(inplace=True)
    )
    (12): Sequential(
      (0): Conv2d(32, 32, kernel_size=(3, 3), stride=(2, 2), padding=(1, 1), groups=32, bias=False)
      (1): BatchNorm2d(32, eps=1e-05, momentum=0.1, affine=True, track_running_stats=True)
      (2): ReLU(inplace=True)
      (3): Conv2d(32, 100, kernel_size=(1, 1), stride=(1, 1), bias=False)
      (4): BatchNorm2d(100, eps=1e-05, momentum=0.1, affine=True, track_running_stats=True)
      (5): ReLU(inplace=True)
    )
    (13): Sequential(
      (0): Conv2d(100, 100, kernel_size=(3, 3), stride=(1, 1), padding=(1, 1), groups=100, bias=False)
      (1): BatchNorm2d(100, eps=1e-05, momentum=0.1, affine=True, track_running_stats=True)
      (2): ReLU(inplace=True)
      (3): Conv2d(100, 80, kernel_size=(1, 1), stride=(1, 1), bias=False)
      (4): BatchNorm2d(80, eps=1e-05, momentum=0.1, affine=True, track_running_stats=True)
      (5): ReLU(inplace=True)
    )
  )
  (extras): ModuleList(
    (0): Sequential(
      (0): Conv2d(80, 25, kernel_size=(1, 1), stride=(1, 1))
      (1): ReLU()
      (2): Sequential(
        (0): Conv2d(25, 25, kernel_size=(3, 3), stride=(2, 2), padding=(1, 1), groups=25)
        (1): ReLU()
        (2): Conv2d(25, 40, kernel_size=(1, 1), stride=(1, 1))
      )
    )
    (1): Sequential(
      (0): Conv2d(40, 13, kernel_size=(1, 1), stride=(1, 1))
      (1): ReLU()
      (2): Sequential(
        (0): Conv2d(13, 13, kernel_size=(3, 3), stride=(2, 2), padding=(1, 1), groups=13)
        (1): ReLU()
        (2): Conv2d(13, 20, kernel_size=(1, 1), stride=(1, 1))
      )
    )
    (2): Sequential(
      (0): Conv2d(20, 13, kernel_size=(1, 1), stride=(1, 1))
      (1): ReLU()
      (2): Sequential(
        (0): Conv2d(13, 13, kernel_size=(3, 3), stride=(2, 2), padding=(1, 1), groups=13)
        (1): ReLU()
        (2): Conv2d(13, 20, kernel_size=(1, 1), stride=(1, 1))
      )
    )
    (3): Sequential(
      (0): Conv2d(20, 13, kernel_size=(1, 1), stride=(1, 1))
      (1): ReLU()
      (2): Sequential(
        (0): Conv2d(13, 13, kernel_size=(3, 3), stride=(2, 2), padding=(1, 1), groups=13)
        (1): ReLU()
        (2): Conv2d(13, 31, kernel_size=(1, 1), stride=(1, 1))
      )
    )
  )
  (classification_headers): ModuleList(
    (0): Sequential(
      (0): Conv2d(32, 32, kernel_size=(3, 3), stride=(1, 1), padding=(1, 1), groups=32)
      (1): ReLU()
      (2): Conv2d(32, 12, kernel_size=(1, 1), stride=(1, 1))
    )
    (1): Sequential(
      (0): Conv2d(80, 80, kernel_size=(3, 3), stride=(1, 1), padding=(1, 1), groups=80)
      (1): ReLU()
      (2): Conv2d(80, 12, kernel_size=(1, 1), stride=(1, 1))
    )
    (2): Sequential(
      (0): Conv2d(40, 40, kernel_size=(3, 3), stride=(1, 1), padding=(1, 1), groups=40)
      (1): ReLU()
      (2): Conv2d(40, 12, kernel_size=(1, 1), stride=(1, 1))
    )
    (3): Sequential(
      (0): Conv2d(20, 20, kernel_size=(3, 3), stride=(1, 1), padding=(1, 1), groups=20)
      (1): ReLU()
      (2): Conv2d(20, 12, kernel_size=(1, 1), stride=(1, 1))
    )
    (4): Sequential(
      (0): Conv2d(20, 20, kernel_size=(3, 3), stride=(1, 1), padding=(1, 1), groups=20)
      (1): ReLU()
      (2): Conv2d(20, 12, kernel_size=(1, 1), stride=(1, 1))
    )
    (5): Conv2d(31, 12, kernel_size=(1, 1), stride=(1, 1))
  )
  (regression_headers): ModuleList(
    (0): Sequential(
      (0): Conv2d(32, 32, kernel_size=(3, 3), stride=(1, 1), padding=(1, 1), groups=32)
      (1): ReLU()
      (2): Conv2d(32, 24, kernel_size=(1, 1), stride=(1, 1))
    )
    (1): Sequential(
      (0): Conv2d(80, 80, kernel_size=(3, 3), stride=(1, 1), padding=(1, 1), groups=80)
      (1): ReLU()
      (2): Conv2d(80, 24, kernel_size=(1, 1), stride=(1, 1))
    )
    (2): Sequential(
      (0): Conv2d(40, 40, kernel_size=(3, 3), stride=(1, 1), padding=(1, 1), groups=40)
      (1): ReLU()
      (2): Conv2d(40, 24, kernel_size=(1, 1), stride=(1, 1))
    )
    (3): Sequential(
      (0): Conv2d(20, 20, kernel_size=(3, 3), stride=(1, 1), padding=(1, 1), groups=20)
      (1): ReLU()
      (2): Conv2d(20, 24, kernel_size=(1, 1), stride=(1, 1))
    )
    (4): Sequential(
      (0): Conv2d(20, 20, kernel_size=(3, 3), stride=(1, 1), padding=(1, 1), groups=20)
      (1): ReLU()
      (2): Conv2d(20, 24, kernel_size=(1, 1), stride=(1, 1))
    )
    (5): Conv2d(31, 24, kernel_size=(1, 1), stride=(1, 1))
  )
  (source_layer_add_ons): ModuleList()
)
Saved prune model models/prune/prune.pth
Number of Parameters: 0.0M
Epoch: 0, Validation Loss: 4.6800, Validation Regression Loss 2.3068, Validation Classification Loss: 2.3732
Saved model models/prune/Epoch-0-Loss-4.680021217891148.pth
Epoch: 10, Validation Loss: 3.9978, Validation Regression Loss 1.7745, Validation Classification Loss: 2.2233
…
