root-- VOC2007
Pruning round 1, load model from models/ep1000ws1pr/mb1-ssd-lite-Epoch-945-Loss-3.2492578540529524.pth
SSD(
  (base_net): Sequential(
    (0): Sequential(
      (0): Conv2d(3, 3, kernel_size=(3, 3), stride=(2, 2), padding=(1, 1), bias=False)
      (1): BatchNorm2d(3, eps=1e-05, momentum=0.1, affine=True, track_running_stats=True)
      (2): ReLU(inplace=True)
    )
    (1): Sequential(
      (0): Conv2d(3, 3, kernel_size=(3, 3), stride=(1, 1), padding=(1, 1), groups=3, bias=False)
      (1): BatchNorm2d(3, eps=1e-05, momentum=0.1, affine=True, track_running_stats=True)
      (2): ReLU(inplace=True)
      (3): Conv2d(3, 6, kernel_size=(1, 1), stride=(1, 1), bias=False)
      (4): BatchNorm2d(6, eps=1e-05, momentum=0.1, affine=True, track_running_stats=True)
      (5): ReLU(inplace=True)
    )
    (2): Sequential(
      (0): Conv2d(6, 6, kernel_size=(3, 3), stride=(2, 2), padding=(1, 1), groups=6, bias=False)
      (1): BatchNorm2d(6, eps=1e-05, momentum=0.1, affine=True, track_running_stats=True)
      (2): ReLU(inplace=True)
      (3): Conv2d(6, 12, kernel_size=(1, 1), stride=(1, 1), bias=False)
      (4): BatchNorm2d(12, eps=1e-05, momentum=0.1, affine=True, track_running_stats=True)
      (5): ReLU(inplace=True)
    )
    (3): Sequential(
      (0): Conv2d(12, 12, kernel_size=(3, 3), stride=(1, 1), padding=(1, 1), groups=12, bias=False)
      (1): BatchNorm2d(12, eps=1e-05, momentum=0.1, affine=True, track_running_stats=True)
      (2): ReLU(inplace=True)
      (3): Conv2d(12, 12, kernel_size=(1, 1), stride=(1, 1), bias=False)
      (4): BatchNorm2d(12, eps=1e-05, momentum=0.1, affine=True, track_running_stats=True)
      (5): ReLU(inplace=True)
    )
    (4): Sequential(
      (0): Conv2d(12, 12, kernel_size=(3, 3), stride=(2, 2), padding=(1, 1), groups=12, bias=False)
      (1): BatchNorm2d(12, eps=1e-05, momentum=0.1, affine=True, track_running_stats=True)
      (2): ReLU(inplace=True)
      (3): Conv2d(12, 24, kernel_size=(1, 1), stride=(1, 1), bias=False)
      (4): BatchNorm2d(24, eps=1e-05, momentum=0.1, affine=True, track_running_stats=True)
      (5): ReLU(inplace=True)
    )
    (5): Sequential(
      (0): Conv2d(24, 24, kernel_size=(3, 3), stride=(1, 1), padding=(1, 1), groups=24, bias=False)
      (1): BatchNorm2d(24, eps=1e-05, momentum=0.1, affine=True, track_running_stats=True)
      (2): ReLU(inplace=True)
      (3): Conv2d(24, 24, kernel_size=(1, 1), stride=(1, 1), bias=False)
      (4): BatchNorm2d(24, eps=1e-05, momentum=0.1, affine=True, track_running_stats=True)
      (5): ReLU(inplace=True)
    )
    (6): Sequential(
      (0): Conv2d(24, 24, kernel_size=(3, 3), stride=(2, 2), padding=(1, 1), groups=24, bias=False)
      (1): BatchNorm2d(24, eps=1e-05, momentum=0.1, affine=True, track_running_stats=True)
      (2): ReLU(inplace=True)
      (3): Conv2d(24, 47, kernel_size=(1, 1), stride=(1, 1), bias=False)
      (4): BatchNorm2d(47, eps=1e-05, momentum=0.1, affine=True, track_running_stats=True)
      (5): ReLU(inplace=True)
    )
    (7): Sequential(
      (0): Conv2d(47, 47, kernel_size=(3, 3), stride=(1, 1), padding=(1, 1), groups=47, bias=False)
      (1): BatchNorm2d(47, eps=1e-05, momentum=0.1, affine=True, track_running_stats=True)
      (2): ReLU(inplace=True)
      (3): Conv2d(47, 47, kernel_size=(1, 1), stride=(1, 1), bias=False)
      (4): BatchNorm2d(47, eps=1e-05, momentum=0.1, affine=True, track_running_stats=True)
      (5): ReLU(inplace=True)
    )
    (8): Sequential(
      (0): Conv2d(47, 47, kernel_size=(3, 3), stride=(1, 1), padding=(1, 1), groups=47, bias=False)
      (1): BatchNorm2d(47, eps=1e-05, momentum=0.1, affine=True, track_running_stats=True)
      (2): ReLU(inplace=True)
      (3): Conv2d(47, 47, kernel_size=(1, 1), stride=(1, 1), bias=False)
      (4): BatchNorm2d(47, eps=1e-05, momentum=0.1, affine=True, track_running_stats=True)
      (5): ReLU(inplace=True)
    )
    (9): Sequential(
      (0): Conv2d(47, 47, kernel_size=(3, 3), stride=(1, 1), padding=(1, 1), groups=47, bias=False)
      (1): BatchNorm2d(47, eps=1e-05, momentum=0.1, affine=True, track_running_stats=True)
      (2): ReLU(inplace=True)
      (3): Conv2d(47, 47, kernel_size=(1, 1), stride=(1, 1), bias=False)
      (4): BatchNorm2d(47, eps=1e-05, momentum=0.1, affine=True, track_running_stats=True)
      (5): ReLU(inplace=True)
    )
    (10): Sequential(
      (0): Conv2d(47, 47, kernel_size=(3, 3), stride=(1, 1), padding=(1, 1), groups=47, bias=False)
      (1): BatchNorm2d(47, eps=1e-05, momentum=0.1, affine=True, track_running_stats=True)
      (2): ReLU(inplace=True)
      (3): Conv2d(47, 47, kernel_size=(1, 1), stride=(1, 1), bias=False)
      (4): BatchNorm2d(47, eps=1e-05, momentum=0.1, affine=True, track_running_stats=True)
      (5): ReLU(inplace=True)
    )
    (11): Sequential(
      (0): Conv2d(47, 47, kernel_size=(3, 3), stride=(1, 1), padding=(1, 1), groups=47, bias=False)
      (1): BatchNorm2d(47, eps=1e-05, momentum=0.1, affine=True, track_running_stats=True)
      (2): ReLU(inplace=True)
      (3): Conv2d(47, 5, kernel_size=(1, 1), stride=(1, 1), bias=False)
      (4): BatchNorm2d(5, eps=1e-05, momentum=0.1, affine=True, track_running_stats=True)
      (5): ReLU(inplace=True)
    )
    (12): Sequential(
      (0): Conv2d(5, 5, kernel_size=(3, 3), stride=(2, 2), padding=(1, 1), groups=5, bias=False)
      (1): BatchNorm2d(5, eps=1e-05, momentum=0.1, affine=True, track_running_stats=True)
      (2): ReLU(inplace=True)
      (3): Conv2d(5, 93, kernel_size=(1, 1), stride=(1, 1), bias=False)
      (4): BatchNorm2d(93, eps=1e-05, momentum=0.1, affine=True, track_running_stats=True)
      (5): ReLU(inplace=True)
    )
    (13): Sequential(
      (0): Conv2d(93, 93, kernel_size=(3, 3), stride=(1, 1), padding=(1, 1), groups=93, bias=False)
      (1): BatchNorm2d(93, eps=1e-05, momentum=0.1, affine=True, track_running_stats=True)
      (2): ReLU(inplace=True)
      (3): Conv2d(93, 28, kernel_size=(1, 1), stride=(1, 1), bias=False)
      (4): BatchNorm2d(28, eps=1e-05, momentum=0.1, affine=True, track_running_stats=True)
      (5): ReLU(inplace=True)
    )
  )
  (extras): ModuleList(
    (0): Sequential(
      (0): Conv2d(28, 24, kernel_size=(1, 1), stride=(1, 1))
      (1): ReLU()
      (2): Sequential(
        (0): Conv2d(24, 24, kernel_size=(3, 3), stride=(2, 2), padding=(1, 1), groups=24)
        (1): ReLU()
        (2): Conv2d(24, 15, kernel_size=(1, 1), stride=(1, 1))
      )
    )
    (1): Sequential(
      (0): Conv2d(15, 12, kernel_size=(1, 1), stride=(1, 1))
      (1): ReLU()
      (2): Sequential(
        (0): Conv2d(12, 12, kernel_size=(3, 3), stride=(2, 2), padding=(1, 1), groups=12)
        (1): ReLU()
        (2): Conv2d(12, 8, kernel_size=(1, 1), stride=(1, 1))
      )
    )
    (2): Sequential(
      (0): Conv2d(8, 12, kernel_size=(1, 1), stride=(1, 1))
      (1): ReLU()
      (2): Sequential(
        (0): Conv2d(12, 12, kernel_size=(3, 3), stride=(2, 2), padding=(1, 1), groups=12)
        (1): ReLU()
        (2): Conv2d(12, 8, kernel_size=(1, 1), stride=(1, 1))
      )
    )
    (3): Sequential(
      (0): Conv2d(8, 12, kernel_size=(1, 1), stride=(1, 1))
      (1): ReLU()
      (2): Sequential(
        (0): Conv2d(12, 12, kernel_size=(3, 3), stride=(2, 2), padding=(1, 1), groups=12)
        (1): ReLU()
        (2): Conv2d(12, 77, kernel_size=(1, 1), stride=(1, 1))
      )
    )
  )
  (classification_headers): ModuleList(
    (0): Sequential(
      (0): Conv2d(5, 5, kernel_size=(3, 3), stride=(1, 1), padding=(1, 1), groups=5)
      (1): ReLU()
      (2): Conv2d(5, 12, kernel_size=(1, 1), stride=(1, 1))
    )
    (1): Sequential(
      (0): Conv2d(28, 28, kernel_size=(3, 3), stride=(1, 1), padding=(1, 1), groups=28)
      (1): ReLU()
      (2): Conv2d(28, 12, kernel_size=(1, 1), stride=(1, 1))
    )
    (2): Sequential(
      (0): Conv2d(15, 15, kernel_size=(3, 3), stride=(1, 1), padding=(1, 1), groups=15)
      (1): ReLU()
      (2): Conv2d(15, 12, kernel_size=(1, 1), stride=(1, 1))
    )
    (3): Sequential(
      (0): Conv2d(8, 8, kernel_size=(3, 3), stride=(1, 1), padding=(1, 1), groups=8)
      (1): ReLU()
      (2): Conv2d(8, 12, kernel_size=(1, 1), stride=(1, 1))
    )
    (4): Sequential(
      (0): Conv2d(8, 8, kernel_size=(3, 3), stride=(1, 1), padding=(1, 1), groups=8)
      (1): ReLU()
      (2): Conv2d(8, 12, kernel_size=(1, 1), stride=(1, 1))
    )
    (5): Conv2d(77, 12, kernel_size=(1, 1), stride=(1, 1))
  )
  (regression_headers): ModuleList(
    (0): Sequential(
      (0): Conv2d(5, 5, kernel_size=(3, 3), stride=(1, 1), padding=(1, 1), groups=5)
      (1): ReLU()
      (2): Conv2d(5, 24, kernel_size=(1, 1), stride=(1, 1))
    )
    (1): Sequential(
      (0): Conv2d(28, 28, kernel_size=(3, 3), stride=(1, 1), padding=(1, 1), groups=28)
      (1): ReLU()
      (2): Conv2d(28, 24, kernel_size=(1, 1), stride=(1, 1))
    )
    (2): Sequential(
      (0): Conv2d(15, 15, kernel_size=(3, 3), stride=(1, 1), padding=(1, 1), groups=15)
      (1): ReLU()
      (2): Conv2d(15, 24, kernel_size=(1, 1), stride=(1, 1))
    )
    (3): Sequential(
      (0): Conv2d(8, 8, kernel_size=(3, 3), stride=(1, 1), padding=(1, 1), groups=8)
      (1): ReLU()
      (2): Conv2d(8, 24, kernel_size=(1, 1), stride=(1, 1))
    )
    (4): Sequential(
      (0): Conv2d(8, 8, kernel_size=(3, 3), stride=(1, 1), padding=(1, 1), groups=8)
      (1): ReLU()
      (2): Conv2d(8, 24, kernel_size=(1, 1), stride=(1, 1))
    )
    (5): Conv2d(77, 24, kernel_size=(1, 1), stride=(1, 1))
  )
  (source_layer_add_ons): ModuleList()
)
Saved prune model models/prunefromws1per0.7/prune.pth
Number of Parameters: 0.0M
Epoch: 0, Validation Loss: 5.5798, Validation Regression Loss 3.0984, Validation Classification Loss: 2.4814
Saved model models/prunefromws1per0.7/Epoch-0-Loss-5.579771041870117.pth
Epoch: 10, Validation Loss: 5.2879, Validation Regression Loss 2.9956, Validation Classification Loss: 2.2924
…
