root-- VOC2007
Pruning round 1, load model from models/prunefromws1per0.2ep80/Epoch-79-Loss-3.2722397531781877.pth
SSD(
  (base_net): Sequential(
    (0): Sequential(
      (0): Conv2d(3, 14, kernel_size=(3, 3), stride=(2, 2), padding=(1, 1), bias=False)
      (1): BatchNorm2d(14, eps=1e-05, momentum=0.1, affine=True, track_running_stats=True)
      (2): ReLU(inplace=True)
    )
    (1): Sequential(
      (0): Conv2d(14, 14, kernel_size=(3, 3), stride=(1, 1), padding=(1, 1), groups=14, bias=False)
      (1): BatchNorm2d(14, eps=1e-05, momentum=0.1, affine=True, track_running_stats=True)
      (2): ReLU(inplace=True)
      (3): Conv2d(14, 28, kernel_size=(1, 1), stride=(1, 1), bias=False)
      (4): BatchNorm2d(28, eps=1e-05, momentum=0.1, affine=True, track_running_stats=True)
      (5): ReLU(inplace=True)
    )
    (2): Sequential(
      (0): Conv2d(28, 28, kernel_size=(3, 3), stride=(2, 2), padding=(1, 1), groups=28, bias=False)
      (1): BatchNorm2d(28, eps=1e-05, momentum=0.1, affine=True, track_running_stats=True)
      (2): ReLU(inplace=True)
      (3): Conv2d(28, 54, kernel_size=(1, 1), stride=(1, 1), bias=False)
      (4): BatchNorm2d(54, eps=1e-05, momentum=0.1, affine=True, track_running_stats=True)
      (5): ReLU(inplace=True)
    )
    (3): Sequential(
      (0): Conv2d(54, 54, kernel_size=(3, 3), stride=(1, 1), padding=(1, 1), groups=54, bias=False)
      (1): BatchNorm2d(54, eps=1e-05, momentum=0.1, affine=True, track_running_stats=True)
      (2): ReLU(inplace=True)
      (3): Conv2d(54, 54, kernel_size=(1, 1), stride=(1, 1), bias=False)
      (4): BatchNorm2d(54, eps=1e-05, momentum=0.1, affine=True, track_running_stats=True)
      (5): ReLU(inplace=True)
    )
    (4): Sequential(
      (0): Conv2d(54, 54, kernel_size=(3, 3), stride=(2, 2), padding=(1, 1), groups=54, bias=False)
      (1): BatchNorm2d(54, eps=1e-05, momentum=0.1, affine=True, track_running_stats=True)
      (2): ReLU(inplace=True)
      (3): Conv2d(54, 106, kernel_size=(1, 1), stride=(1, 1), bias=False)
      (4): BatchNorm2d(106, eps=1e-05, momentum=0.1, affine=True, track_running_stats=True)
      (5): ReLU(inplace=True)
    )
    (5): Sequential(
      (0): Conv2d(106, 106, kernel_size=(3, 3), stride=(1, 1), padding=(1, 1), groups=106, bias=False)
      (1): BatchNorm2d(106, eps=1e-05, momentum=0.1, affine=True, track_running_stats=True)
      (2): ReLU(inplace=True)
      (3): Conv2d(106, 106, kernel_size=(1, 1), stride=(1, 1), bias=False)
      (4): BatchNorm2d(106, eps=1e-05, momentum=0.1, affine=True, track_running_stats=True)
      (5): ReLU(inplace=True)
    )
    (6): Sequential(
      (0): Conv2d(106, 106, kernel_size=(3, 3), stride=(2, 2), padding=(1, 1), groups=106, bias=False)
      (1): BatchNorm2d(106, eps=1e-05, momentum=0.1, affine=True, track_running_stats=True)
      (2): ReLU(inplace=True)
      (3): Conv2d(106, 211, kernel_size=(1, 1), stride=(1, 1), bias=False)
      (4): BatchNorm2d(211, eps=1e-05, momentum=0.1, affine=True, track_running_stats=True)
      (5): ReLU(inplace=True)
    )
    (7): Sequential(
      (0): Conv2d(211, 211, kernel_size=(3, 3), stride=(1, 1), padding=(1, 1), groups=211, bias=False)
      (1): BatchNorm2d(211, eps=1e-05, momentum=0.1, affine=True, track_running_stats=True)
      (2): ReLU(inplace=True)
      (3): Conv2d(211, 211, kernel_size=(1, 1), stride=(1, 1), bias=False)
      (4): BatchNorm2d(211, eps=1e-05, momentum=0.1, affine=True, track_running_stats=True)
      (5): ReLU(inplace=True)
    )
    (8): Sequential(
      (0): Conv2d(211, 211, kernel_size=(3, 3), stride=(1, 1), padding=(1, 1), groups=211, bias=False)
      (1): BatchNorm2d(211, eps=1e-05, momentum=0.1, affine=True, track_running_stats=True)
      (2): ReLU(inplace=True)
      (3): Conv2d(211, 211, kernel_size=(1, 1), stride=(1, 1), bias=False)
      (4): BatchNorm2d(211, eps=1e-05, momentum=0.1, affine=True, track_running_stats=True)
      (5): ReLU(inplace=True)
    )
    (9): Sequential(
      (0): Conv2d(211, 211, kernel_size=(3, 3), stride=(1, 1), padding=(1, 1), groups=211, bias=False)
      (1): BatchNorm2d(211, eps=1e-05, momentum=0.1, affine=True, track_running_stats=True)
      (2): ReLU(inplace=True)
      (3): Conv2d(211, 211, kernel_size=(1, 1), stride=(1, 1), bias=False)
      (4): BatchNorm2d(211, eps=1e-05, momentum=0.1, affine=True, track_running_stats=True)
      (5): ReLU(inplace=True)
    )
    (10): Sequential(
      (0): Conv2d(211, 211, kernel_size=(3, 3), stride=(1, 1), padding=(1, 1), groups=211, bias=False)
      (1): BatchNorm2d(211, eps=1e-05, momentum=0.1, affine=True, track_running_stats=True)
      (2): ReLU(inplace=True)
      (3): Conv2d(211, 211, kernel_size=(1, 1), stride=(1, 1), bias=False)
      (4): BatchNorm2d(211, eps=1e-05, momentum=0.1, affine=True, track_running_stats=True)
      (5): ReLU(inplace=True)
    )
    (11): Sequential(
      (0): Conv2d(211, 211, kernel_size=(3, 3), stride=(1, 1), padding=(1, 1), groups=211, bias=False)
      (1): BatchNorm2d(211, eps=1e-05, momentum=0.1, affine=True, track_running_stats=True)
      (2): ReLU(inplace=True)
      (3): Conv2d(211, 88, kernel_size=(1, 1), stride=(1, 1), bias=False)
      (4): BatchNorm2d(88, eps=1e-05, momentum=0.1, affine=True, track_running_stats=True)
      (5): ReLU(inplace=True)
    )
    (12): Sequential(
      (0): Conv2d(88, 88, kernel_size=(3, 3), stride=(2, 2), padding=(1, 1), groups=88, bias=False)
      (1): BatchNorm2d(88, eps=1e-05, momentum=0.1, affine=True, track_running_stats=True)
      (2): ReLU(inplace=True)
      (3): Conv2d(88, 420, kernel_size=(1, 1), stride=(1, 1), bias=False)
      (4): BatchNorm2d(420, eps=1e-05, momentum=0.1, affine=True, track_running_stats=True)
      (5): ReLU(inplace=True)
    )
    (13): Sequential(
      (0): Conv2d(420, 420, kernel_size=(3, 3), stride=(1, 1), padding=(1, 1), groups=420, bias=False)
      (1): BatchNorm2d(420, eps=1e-05, momentum=0.1, affine=True, track_running_stats=True)
      (2): ReLU(inplace=True)
      (3): Conv2d(420, 269, kernel_size=(1, 1), stride=(1, 1), bias=False)
      (4): BatchNorm2d(269, eps=1e-05, momentum=0.1, affine=True, track_running_stats=True)
      (5): ReLU(inplace=True)
    )
  )
  (extras): ModuleList(
    (0): Sequential(
      (0): Conv2d(269, 106, kernel_size=(1, 1), stride=(1, 1))
      (1): ReLU()
      (2): Sequential(
        (0): Conv2d(106, 106, kernel_size=(3, 3), stride=(2, 2), padding=(1, 1), groups=106)
        (1): ReLU()
        (2): Conv2d(106, 136, kernel_size=(1, 1), stride=(1, 1))
      )
    )
    (1): Sequential(
      (0): Conv2d(136, 54, kernel_size=(1, 1), stride=(1, 1))
      (1): ReLU()
      (2): Sequential(
        (0): Conv2d(54, 54, kernel_size=(3, 3), stride=(2, 2), padding=(1, 1), groups=54)
        (1): ReLU()
        (2): Conv2d(54, 68, kernel_size=(1, 1), stride=(1, 1))
      )
    )
    (2): Sequential(
      (0): Conv2d(68, 54, kernel_size=(1, 1), stride=(1, 1))
      (1): ReLU()
      (2): Sequential(
        (0): Conv2d(54, 54, kernel_size=(3, 3), stride=(2, 2), padding=(1, 1), groups=54)
        (1): ReLU()
        (2): Conv2d(54, 68, kernel_size=(1, 1), stride=(1, 1))
      )
    )
    (3): Sequential(
      (0): Conv2d(68, 54, kernel_size=(1, 1), stride=(1, 1))
      (1): ReLU()
      (2): Sequential(
        (0): Conv2d(54, 54, kernel_size=(3, 3), stride=(2, 2), padding=(1, 1), groups=54)
        (1): ReLU()
        (2): Conv2d(54, 164, kernel_size=(1, 1), stride=(1, 1))
      )
    )
  )
  (classification_headers): ModuleList(
    (0): Sequential(
      (0): Conv2d(88, 88, kernel_size=(3, 3), stride=(1, 1), padding=(1, 1), groups=88)
      (1): ReLU()
      (2): Conv2d(88, 12, kernel_size=(1, 1), stride=(1, 1))
    )
    (1): Sequential(
      (0): Conv2d(269, 269, kernel_size=(3, 3), stride=(1, 1), padding=(1, 1), groups=269)
      (1): ReLU()
      (2): Conv2d(269, 12, kernel_size=(1, 1), stride=(1, 1))
    )
    (2): Sequential(
      (0): Conv2d(136, 136, kernel_size=(3, 3), stride=(1, 1), padding=(1, 1), groups=136)
      (1): ReLU()
      (2): Conv2d(136, 12, kernel_size=(1, 1), stride=(1, 1))
    )
    (3): Sequential(
      (0): Conv2d(68, 68, kernel_size=(3, 3), stride=(1, 1), padding=(1, 1), groups=68)
      (1): ReLU()
      (2): Conv2d(68, 12, kernel_size=(1, 1), stride=(1, 1))
    )
    (4): Sequential(
      (0): Conv2d(68, 68, kernel_size=(3, 3), stride=(1, 1), padding=(1, 1), groups=68)
      (1): ReLU()
      (2): Conv2d(68, 12, kernel_size=(1, 1), stride=(1, 1))
    )
    (5): Conv2d(164, 12, kernel_size=(1, 1), stride=(1, 1))
  )
  (regression_headers): ModuleList(
    (0): Sequential(
      (0): Conv2d(88, 88, kernel_size=(3, 3), stride=(1, 1), padding=(1, 1), groups=88)
      (1): ReLU()
      (2): Conv2d(88, 24, kernel_size=(1, 1), stride=(1, 1))
    )
    (1): Sequential(
      (0): Conv2d(269, 269, kernel_size=(3, 3), stride=(1, 1), padding=(1, 1), groups=269)
      (1): ReLU()
      (2): Conv2d(269, 24, kernel_size=(1, 1), stride=(1, 1))
    )
    (2): Sequential(
      (0): Conv2d(136, 136, kernel_size=(3, 3), stride=(1, 1), padding=(1, 1), groups=136)
      (1): ReLU()
      (2): Conv2d(136, 24, kernel_size=(1, 1), stride=(1, 1))
    )
    (3): Sequential(
      (0): Conv2d(68, 68, kernel_size=(3, 3), stride=(1, 1), padding=(1, 1), groups=68)
      (1): ReLU()
      (2): Conv2d(68, 24, kernel_size=(1, 1), stride=(1, 1))
    )
    (4): Sequential(
      (0): Conv2d(68, 68, kernel_size=(3, 3), stride=(1, 1), padding=(1, 1), groups=68)
      (1): ReLU()
      (2): Conv2d(68, 24, kernel_size=(1, 1), stride=(1, 1))
    )
    (5): Conv2d(164, 24, kernel_size=(1, 1), stride=(1, 1))
  )
  (source_layer_add_ons): ModuleList()
)
Saved prune model models/prunefrom5693per0.2/prune.pth
Number of Parameters: 0.5M
Epoch: 0, Validation Loss: 4.1981, Validation Regression Loss 2.0102, Validation Classification Loss: 2.1879
Saved model models/prunefrom5693per0.2/Epoch-0-Loss-4.198127269744873.pth
Epoch: 10, Validation Loss: 3.6028, Validation Regression Loss 1.5063, Validation Classification Loss: 2.0965
…
