root-- VOC2007
Pruning round 1, load model from models/prune277ep2000/Epoch-1950-Loss-3.4940130710601807.pth
SSD(
  (base_net): Sequential(
    (0): Sequential(
      (0): Conv2d(3, 4, kernel_size=(3, 3), stride=(2, 2), padding=(1, 1), bias=False)
      (1): BatchNorm2d(4, eps=1e-05, momentum=0.1, affine=True, track_running_stats=True)
      (2): ReLU(inplace=True)
    )
    (1): Sequential(
      (0): Conv2d(4, 4, kernel_size=(3, 3), stride=(1, 1), padding=(1, 1), groups=4, bias=False)
      (1): BatchNorm2d(4, eps=1e-05, momentum=0.1, affine=True, track_running_stats=True)
      (2): ReLU(inplace=True)
      (3): Conv2d(4, 5, kernel_size=(1, 1), stride=(1, 1), bias=False)
      (4): BatchNorm2d(5, eps=1e-05, momentum=0.1, affine=True, track_running_stats=True)
      (5): ReLU(inplace=True)
    )
    (2): Sequential(
      (0): Conv2d(5, 5, kernel_size=(3, 3), stride=(2, 2), padding=(1, 1), groups=5, bias=False)
      (1): BatchNorm2d(5, eps=1e-05, momentum=0.1, affine=True, track_running_stats=True)
      (2): ReLU(inplace=True)
      (3): Conv2d(5, 9, kernel_size=(1, 1), stride=(1, 1), bias=False)
      (4): BatchNorm2d(9, eps=1e-05, momentum=0.1, affine=True, track_running_stats=True)
      (5): ReLU(inplace=True)
    )
    (3): Sequential(
      (0): Conv2d(9, 9, kernel_size=(3, 3), stride=(1, 1), padding=(1, 1), groups=9, bias=False)
      (1): BatchNorm2d(9, eps=1e-05, momentum=0.1, affine=True, track_running_stats=True)
      (2): ReLU(inplace=True)
      (3): Conv2d(9, 9, kernel_size=(1, 1), stride=(1, 1), bias=False)
      (4): BatchNorm2d(9, eps=1e-05, momentum=0.1, affine=True, track_running_stats=True)
      (5): ReLU(inplace=True)
    )
    (4): Sequential(
      (0): Conv2d(9, 9, kernel_size=(3, 3), stride=(2, 2), padding=(1, 1), groups=9, bias=False)
      (1): BatchNorm2d(9, eps=1e-05, momentum=0.1, affine=True, track_running_stats=True)
      (2): ReLU(inplace=True)
      (3): Conv2d(9, 16, kernel_size=(1, 1), stride=(1, 1), bias=False)
      (4): BatchNorm2d(16, eps=1e-05, momentum=0.1, affine=True, track_running_stats=True)
      (5): ReLU(inplace=True)
    )
    (5): Sequential(
      (0): Conv2d(16, 16, kernel_size=(3, 3), stride=(1, 1), padding=(1, 1), groups=16, bias=False)
      (1): BatchNorm2d(16, eps=1e-05, momentum=0.1, affine=True, track_running_stats=True)
      (2): ReLU(inplace=True)
      (3): Conv2d(16, 16, kernel_size=(1, 1), stride=(1, 1), bias=False)
      (4): BatchNorm2d(16, eps=1e-05, momentum=0.1, affine=True, track_running_stats=True)
      (5): ReLU(inplace=True)
    )
    (6): Sequential(
      (0): Conv2d(16, 16, kernel_size=(3, 3), stride=(2, 2), padding=(1, 1), groups=16, bias=False)
      (1): BatchNorm2d(16, eps=1e-05, momentum=0.1, affine=True, track_running_stats=True)
      (2): ReLU(inplace=True)
      (3): Conv2d(16, 32, kernel_size=(1, 1), stride=(1, 1), bias=False)
      (4): BatchNorm2d(32, eps=1e-05, momentum=0.1, affine=True, track_running_stats=True)
      (5): ReLU(inplace=True)
    )
    (7): Sequential(
      (0): Conv2d(32, 32, kernel_size=(3, 3), stride=(1, 1), padding=(1, 1), groups=32, bias=False)
      (1): BatchNorm2d(32, eps=1e-05, momentum=0.1, affine=True, track_running_stats=True)
      (2): ReLU(inplace=True)
      (3): Conv2d(32, 32, kernel_size=(1, 1), stride=(1, 1), bias=False)
      (4): BatchNorm2d(32, eps=1e-05, momentum=0.1, affine=True, track_running_stats=True)
      (5): ReLU(inplace=True)
    )
    (8): Sequential(
      (0): Conv2d(32, 32, kernel_size=(3, 3), stride=(1, 1), padding=(1, 1), groups=32, bias=False)
      (1): BatchNorm2d(32, eps=1e-05, momentum=0.1, affine=True, track_running_stats=True)
      (2): ReLU(inplace=True)
      (3): Conv2d(32, 32, kernel_size=(1, 1), stride=(1, 1), bias=False)
      (4): BatchNorm2d(32, eps=1e-05, momentum=0.1, affine=True, track_running_stats=True)
      (5): ReLU(inplace=True)
    )
    (9): Sequential(
      (0): Conv2d(32, 32, kernel_size=(3, 3), stride=(1, 1), padding=(1, 1), groups=32, bias=False)
      (1): BatchNorm2d(32, eps=1e-05, momentum=0.1, affine=True, track_running_stats=True)
      (2): ReLU(inplace=True)
      (3): Conv2d(32, 32, kernel_size=(1, 1), stride=(1, 1), bias=False)
      (4): BatchNorm2d(32, eps=1e-05, momentum=0.1, affine=True, track_running_stats=True)
      (5): ReLU(inplace=True)
    )
    (10): Sequential(
      (0): Conv2d(32, 32, kernel_size=(3, 3), stride=(1, 1), padding=(1, 1), groups=32, bias=False)
      (1): BatchNorm2d(32, eps=1e-05, momentum=0.1, affine=True, track_running_stats=True)
      (2): ReLU(inplace=True)
      (3): Conv2d(32, 32, kernel_size=(1, 1), stride=(1, 1), bias=False)
      (4): BatchNorm2d(32, eps=1e-05, momentum=0.1, affine=True, track_running_stats=True)
      (5): ReLU(inplace=True)
    )
    (11): Sequential(
      (0): Conv2d(32, 32, kernel_size=(3, 3), stride=(1, 1), padding=(1, 1), groups=32, bias=False)
      (1): BatchNorm2d(32, eps=1e-05, momentum=0.1, affine=True, track_running_stats=True)
      (2): ReLU(inplace=True)
      (3): Conv2d(32, 14, kernel_size=(1, 1), stride=(1, 1), bias=False)
      (4): BatchNorm2d(14, eps=1e-05, momentum=0.1, affine=True, track_running_stats=True)
      (5): ReLU(inplace=True)
    )
    (12): Sequential(
      (0): Conv2d(14, 14, kernel_size=(3, 3), stride=(2, 2), padding=(1, 1), groups=14, bias=False)
      (1): BatchNorm2d(14, eps=1e-05, momentum=0.1, affine=True, track_running_stats=True)
      (2): ReLU(inplace=True)
      (3): Conv2d(14, 64, kernel_size=(1, 1), stride=(1, 1), bias=False)
      (4): BatchNorm2d(64, eps=1e-05, momentum=0.1, affine=True, track_running_stats=True)
      (5): ReLU(inplace=True)
    )
    (13): Sequential(
      (0): Conv2d(64, 64, kernel_size=(3, 3), stride=(1, 1), padding=(1, 1), groups=64, bias=False)
      (1): BatchNorm2d(64, eps=1e-05, momentum=0.1, affine=True, track_running_stats=True)
      (2): ReLU(inplace=True)
      (3): Conv2d(64, 42, kernel_size=(1, 1), stride=(1, 1), bias=False)
      (4): BatchNorm2d(42, eps=1e-05, momentum=0.1, affine=True, track_running_stats=True)
      (5): ReLU(inplace=True)
    )
  )
  (extras): ModuleList(
    (0): Sequential(
      (0): Conv2d(42, 16, kernel_size=(1, 1), stride=(1, 1))
      (1): ReLU()
      (2): Sequential(
        (0): Conv2d(16, 16, kernel_size=(3, 3), stride=(2, 2), padding=(1, 1), groups=16)
        (1): ReLU()
        (2): Conv2d(16, 21, kernel_size=(1, 1), stride=(1, 1))
      )
    )
    (1): Sequential(
      (0): Conv2d(21, 9, kernel_size=(1, 1), stride=(1, 1))
      (1): ReLU()
      (2): Sequential(
        (0): Conv2d(9, 9, kernel_size=(3, 3), stride=(2, 2), padding=(1, 1), groups=9)
        (1): ReLU()
        (2): Conv2d(9, 11, kernel_size=(1, 1), stride=(1, 1))
      )
    )
    (2): Sequential(
      (0): Conv2d(11, 9, kernel_size=(1, 1), stride=(1, 1))
      (1): ReLU()
      (2): Sequential(
        (0): Conv2d(9, 9, kernel_size=(3, 3), stride=(2, 2), padding=(1, 1), groups=9)
        (1): ReLU()
        (2): Conv2d(9, 11, kernel_size=(1, 1), stride=(1, 1))
      )
    )
    (3): Sequential(
      (0): Conv2d(11, 9, kernel_size=(1, 1), stride=(1, 1))
      (1): ReLU()
      (2): Sequential(
        (0): Conv2d(9, 9, kernel_size=(3, 3), stride=(2, 2), padding=(1, 1), groups=9)
        (1): ReLU()
        (2): Conv2d(9, 25, kernel_size=(1, 1), stride=(1, 1))
      )
    )
  )
  (classification_headers): ModuleList(
    (0): Sequential(
      (0): Conv2d(14, 14, kernel_size=(3, 3), stride=(1, 1), padding=(1, 1), groups=14)
      (1): ReLU()
      (2): Conv2d(14, 12, kernel_size=(1, 1), stride=(1, 1))
    )
    (1): Sequential(
      (0): Conv2d(42, 42, kernel_size=(3, 3), stride=(1, 1), padding=(1, 1), groups=42)
      (1): ReLU()
      (2): Conv2d(42, 12, kernel_size=(1, 1), stride=(1, 1))
    )
    (2): Sequential(
      (0): Conv2d(21, 21, kernel_size=(3, 3), stride=(1, 1), padding=(1, 1), groups=21)
      (1): ReLU()
      (2): Conv2d(21, 12, kernel_size=(1, 1), stride=(1, 1))
    )
    (3): Sequential(
      (0): Conv2d(11, 11, kernel_size=(3, 3), stride=(1, 1), padding=(1, 1), groups=11)
      (1): ReLU()
      (2): Conv2d(11, 12, kernel_size=(1, 1), stride=(1, 1))
    )
    (4): Sequential(
      (0): Conv2d(11, 11, kernel_size=(3, 3), stride=(1, 1), padding=(1, 1), groups=11)
      (1): ReLU()
      (2): Conv2d(11, 12, kernel_size=(1, 1), stride=(1, 1))
    )
    (5): Conv2d(25, 12, kernel_size=(1, 1), stride=(1, 1))
  )
  (regression_headers): ModuleList(
    (0): Sequential(
      (0): Conv2d(14, 14, kernel_size=(3, 3), stride=(1, 1), padding=(1, 1), groups=14)
      (1): ReLU()
      (2): Conv2d(14, 24, kernel_size=(1, 1), stride=(1, 1))
    )
    (1): Sequential(
      (0): Conv2d(42, 42, kernel_size=(3, 3), stride=(1, 1), padding=(1, 1), groups=42)
      (1): ReLU()
      (2): Conv2d(42, 24, kernel_size=(1, 1), stride=(1, 1))
    )
    (2): Sequential(
      (0): Conv2d(21, 21, kernel_size=(3, 3), stride=(1, 1), padding=(1, 1), groups=21)
      (1): ReLU()
      (2): Conv2d(21, 24, kernel_size=(1, 1), stride=(1, 1))
    )
    (3): Sequential(
      (0): Conv2d(11, 11, kernel_size=(3, 3), stride=(1, 1), padding=(1, 1), groups=11)
      (1): ReLU()
      (2): Conv2d(11, 24, kernel_size=(1, 1), stride=(1, 1))
    )
    (4): Sequential(
      (0): Conv2d(11, 11, kernel_size=(3, 3), stride=(1, 1), padding=(1, 1), groups=11)
      (1): ReLU()
      (2): Conv2d(11, 24, kernel_size=(1, 1), stride=(1, 1))
    )
    (5): Conv2d(25, 24, kernel_size=(1, 1), stride=(1, 1))
  )
  (source_layer_add_ons): ModuleList()
)
Saved prune model models/pruneFrom277/prune.pth
Number of Parameters: 0.0M
Epoch: 0, Validation Loss: 5.0526, Validation Regression Loss 2.6177, Validation Classification Loss: 2.4349
Saved model models/pruneFrom277/Epoch-0-Loss-5.052590915134975.pth
Epoch: 10, Validation Loss: 4.2138, Validation Regression Loss 1.9752, Validation Classification Loss: 2.2386
…
