root-- VOC2007
Pruning round 1, load model from models/pruneFromws1/Epoch-1260-Loss-3.488939012799944.pth
SSD(
  (base_net): Sequential(
    (0): Sequential(
      (0): Conv2d(3, 4, kernel_size=(3, 3), stride=(2, 2), padding=(1, 1), bias=False)
      (1): BatchNorm2d(4, eps=1e-05, momentum=0.1, affine=True, track_running_stats=True)
      (2): ReLU(inplace=True)
    )
    (1): Sequential(
      (0): Conv2d(4, 4, kernel_size=(3, 3), stride=(1, 1), padding=(1, 1), groups=4, bias=False)
      (1): BatchNorm2d(4, eps=1e-05, momentum=0.1, affine=True, track_running_stats=True)
      (2): ReLU(inplace=True)
      (3): Conv2d(4, 6, kernel_size=(1, 1), stride=(1, 1), bias=False)
      (4): BatchNorm2d(6, eps=1e-05, momentum=0.1, affine=True, track_running_stats=True)
      (5): ReLU(inplace=True)
    )
    (2): Sequential(
      (0): Conv2d(6, 6, kernel_size=(3, 3), stride=(2, 2), padding=(1, 1), groups=6, bias=False)
      (1): BatchNorm2d(6, eps=1e-05, momentum=0.1, affine=True, track_running_stats=True)
      (2): ReLU(inplace=True)
      (3): Conv2d(6, 11, kernel_size=(1, 1), stride=(1, 1), bias=False)
      (4): BatchNorm2d(11, eps=1e-05, momentum=0.1, affine=True, track_running_stats=True)
      (5): ReLU(inplace=True)
    )
    (3): Sequential(
      (0): Conv2d(11, 11, kernel_size=(3, 3), stride=(1, 1), padding=(1, 1), groups=11, bias=False)
      (1): BatchNorm2d(11, eps=1e-05, momentum=0.1, affine=True, track_running_stats=True)
      (2): ReLU(inplace=True)
      (3): Conv2d(11, 11, kernel_size=(1, 1), stride=(1, 1), bias=False)
      (4): BatchNorm2d(11, eps=1e-05, momentum=0.1, affine=True, track_running_stats=True)
      (5): ReLU(inplace=True)
    )
    (4): Sequential(
      (0): Conv2d(11, 11, kernel_size=(3, 3), stride=(2, 2), padding=(1, 1), groups=11, bias=False)
      (1): BatchNorm2d(11, eps=1e-05, momentum=0.1, affine=True, track_running_stats=True)
      (2): ReLU(inplace=True)
      (3): Conv2d(11, 21, kernel_size=(1, 1), stride=(1, 1), bias=False)
      (4): BatchNorm2d(21, eps=1e-05, momentum=0.1, affine=True, track_running_stats=True)
      (5): ReLU(inplace=True)
    )
    (5): Sequential(
      (0): Conv2d(21, 21, kernel_size=(3, 3), stride=(1, 1), padding=(1, 1), groups=21, bias=False)
      (1): BatchNorm2d(21, eps=1e-05, momentum=0.1, affine=True, track_running_stats=True)
      (2): ReLU(inplace=True)
      (3): Conv2d(21, 21, kernel_size=(1, 1), stride=(1, 1), bias=False)
      (4): BatchNorm2d(21, eps=1e-05, momentum=0.1, affine=True, track_running_stats=True)
      (5): ReLU(inplace=True)
    )
    (6): Sequential(
      (0): Conv2d(21, 21, kernel_size=(3, 3), stride=(2, 2), padding=(1, 1), groups=21, bias=False)
      (1): BatchNorm2d(21, eps=1e-05, momentum=0.1, affine=True, track_running_stats=True)
      (2): ReLU(inplace=True)
      (3): Conv2d(21, 41, kernel_size=(1, 1), stride=(1, 1), bias=False)
      (4): BatchNorm2d(41, eps=1e-05, momentum=0.1, affine=True, track_running_stats=True)
      (5): ReLU(inplace=True)
    )
    (7): Sequential(
      (0): Conv2d(41, 41, kernel_size=(3, 3), stride=(1, 1), padding=(1, 1), groups=41, bias=False)
      (1): BatchNorm2d(41, eps=1e-05, momentum=0.1, affine=True, track_running_stats=True)
      (2): ReLU(inplace=True)
      (3): Conv2d(41, 41, kernel_size=(1, 1), stride=(1, 1), bias=False)
      (4): BatchNorm2d(41, eps=1e-05, momentum=0.1, affine=True, track_running_stats=True)
      (5): ReLU(inplace=True)
    )
    (8): Sequential(
      (0): Conv2d(41, 41, kernel_size=(3, 3), stride=(1, 1), padding=(1, 1), groups=41, bias=False)
      (1): BatchNorm2d(41, eps=1e-05, momentum=0.1, affine=True, track_running_stats=True)
      (2): ReLU(inplace=True)
      (3): Conv2d(41, 41, kernel_size=(1, 1), stride=(1, 1), bias=False)
      (4): BatchNorm2d(41, eps=1e-05, momentum=0.1, affine=True, track_running_stats=True)
      (5): ReLU(inplace=True)
    )
    (9): Sequential(
      (0): Conv2d(41, 41, kernel_size=(3, 3), stride=(1, 1), padding=(1, 1), groups=41, bias=False)
      (1): BatchNorm2d(41, eps=1e-05, momentum=0.1, affine=True, track_running_stats=True)
      (2): ReLU(inplace=True)
      (3): Conv2d(41, 41, kernel_size=(1, 1), stride=(1, 1), bias=False)
      (4): BatchNorm2d(41, eps=1e-05, momentum=0.1, affine=True, track_running_stats=True)
      (5): ReLU(inplace=True)
    )
    (10): Sequential(
      (0): Conv2d(41, 41, kernel_size=(3, 3), stride=(1, 1), padding=(1, 1), groups=41, bias=False)
      (1): BatchNorm2d(41, eps=1e-05, momentum=0.1, affine=True, track_running_stats=True)
      (2): ReLU(inplace=True)
      (3): Conv2d(41, 41, kernel_size=(1, 1), stride=(1, 1), bias=False)
      (4): BatchNorm2d(41, eps=1e-05, momentum=0.1, affine=True, track_running_stats=True)
      (5): ReLU(inplace=True)
    )
    (11): Sequential(
      (0): Conv2d(41, 41, kernel_size=(3, 3), stride=(1, 1), padding=(1, 1), groups=41, bias=False)
      (1): BatchNorm2d(41, eps=1e-05, momentum=0.1, affine=True, track_running_stats=True)
      (2): ReLU(inplace=True)
      (3): Conv2d(41, 4, kernel_size=(1, 1), stride=(1, 1), bias=False)
      (4): BatchNorm2d(4, eps=1e-05, momentum=0.1, affine=True, track_running_stats=True)
      (5): ReLU(inplace=True)
    )
    (12): Sequential(
      (0): Conv2d(4, 4, kernel_size=(3, 3), stride=(2, 2), padding=(1, 1), groups=4, bias=False)
      (1): BatchNorm2d(4, eps=1e-05, momentum=0.1, affine=True, track_running_stats=True)
      (2): ReLU(inplace=True)
      (3): Conv2d(4, 81, kernel_size=(1, 1), stride=(1, 1), bias=False)
      (4): BatchNorm2d(81, eps=1e-05, momentum=0.1, affine=True, track_running_stats=True)
      (5): ReLU(inplace=True)
    )
    (13): Sequential(
      (0): Conv2d(81, 81, kernel_size=(3, 3), stride=(1, 1), padding=(1, 1), groups=81, bias=False)
      (1): BatchNorm2d(81, eps=1e-05, momentum=0.1, affine=True, track_running_stats=True)
      (2): ReLU(inplace=True)
      (3): Conv2d(81, 24, kernel_size=(1, 1), stride=(1, 1), bias=False)
      (4): BatchNorm2d(24, eps=1e-05, momentum=0.1, affine=True, track_running_stats=True)
      (5): ReLU(inplace=True)
    )
  )
  (extras): ModuleList(
    (0): Sequential(
      (0): Conv2d(24, 21, kernel_size=(1, 1), stride=(1, 1))
      (1): ReLU()
      (2): Sequential(
        (0): Conv2d(21, 21, kernel_size=(3, 3), stride=(2, 2), padding=(1, 1), groups=21)
        (1): ReLU()
        (2): Conv2d(21, 12, kernel_size=(1, 1), stride=(1, 1))
      )
    )
    (1): Sequential(
      (0): Conv2d(12, 11, kernel_size=(1, 1), stride=(1, 1))
      (1): ReLU()
      (2): Sequential(
        (0): Conv2d(11, 11, kernel_size=(3, 3), stride=(2, 2), padding=(1, 1), groups=11)
        (1): ReLU()
        (2): Conv2d(11, 7, kernel_size=(1, 1), stride=(1, 1))
      )
    )
    (2): Sequential(
      (0): Conv2d(7, 11, kernel_size=(1, 1), stride=(1, 1))
      (1): ReLU()
      (2): Sequential(
        (0): Conv2d(11, 11, kernel_size=(3, 3), stride=(2, 2), padding=(1, 1), groups=11)
        (1): ReLU()
        (2): Conv2d(11, 7, kernel_size=(1, 1), stride=(1, 1))
      )
    )
    (3): Sequential(
      (0): Conv2d(7, 11, kernel_size=(1, 1), stride=(1, 1))
      (1): ReLU()
      (2): Sequential(
        (0): Conv2d(11, 11, kernel_size=(3, 3), stride=(2, 2), padding=(1, 1), groups=11)
        (1): ReLU()
        (2): Conv2d(11, 73, kernel_size=(1, 1), stride=(1, 1))
      )
    )
  )
  (classification_headers): ModuleList(
    (0): Sequential(
      (0): Conv2d(4, 4, kernel_size=(3, 3), stride=(1, 1), padding=(1, 1), groups=4)
      (1): ReLU()
      (2): Conv2d(4, 12, kernel_size=(1, 1), stride=(1, 1))
    )
    (1): Sequential(
      (0): Conv2d(24, 24, kernel_size=(3, 3), stride=(1, 1), padding=(1, 1), groups=24)
      (1): ReLU()
      (2): Conv2d(24, 12, kernel_size=(1, 1), stride=(1, 1))
    )
    (2): Sequential(
      (0): Conv2d(12, 12, kernel_size=(3, 3), stride=(1, 1), padding=(1, 1), groups=12)
      (1): ReLU()
      (2): Conv2d(12, 12, kernel_size=(1, 1), stride=(1, 1))
    )
    (3): Sequential(
      (0): Conv2d(7, 7, kernel_size=(3, 3), stride=(1, 1), padding=(1, 1), groups=7)
      (1): ReLU()
      (2): Conv2d(7, 12, kernel_size=(1, 1), stride=(1, 1))
    )
    (4): Sequential(
      (0): Conv2d(7, 7, kernel_size=(3, 3), stride=(1, 1), padding=(1, 1), groups=7)
      (1): ReLU()
      (2): Conv2d(7, 12, kernel_size=(1, 1), stride=(1, 1))
    )
    (5): Conv2d(73, 12, kernel_size=(1, 1), stride=(1, 1))
  )
  (regression_headers): ModuleList(
    (0): Sequential(
      (0): Conv2d(4, 4, kernel_size=(3, 3), stride=(1, 1), padding=(1, 1), groups=4)
      (1): ReLU()
      (2): Conv2d(4, 24, kernel_size=(1, 1), stride=(1, 1))
    )
    (1): Sequential(
      (0): Conv2d(24, 24, kernel_size=(3, 3), stride=(1, 1), padding=(1, 1), groups=24)
      (1): ReLU()
      (2): Conv2d(24, 24, kernel_size=(1, 1), stride=(1, 1))
    )
    (2): Sequential(
      (0): Conv2d(12, 12, kernel_size=(3, 3), stride=(1, 1), padding=(1, 1), groups=12)
      (1): ReLU()
      (2): Conv2d(12, 24, kernel_size=(1, 1), stride=(1, 1))
    )
    (3): Sequential(
      (0): Conv2d(7, 7, kernel_size=(3, 3), stride=(1, 1), padding=(1, 1), groups=7)
      (1): ReLU()
      (2): Conv2d(7, 24, kernel_size=(1, 1), stride=(1, 1))
    )
    (4): Sequential(
      (0): Conv2d(7, 7, kernel_size=(3, 3), stride=(1, 1), padding=(1, 1), groups=7)
      (1): ReLU()
      (2): Conv2d(7, 24, kernel_size=(1, 1), stride=(1, 1))
    )
    (5): Conv2d(73, 24, kernel_size=(1, 1), stride=(1, 1))
  )
  (source_layer_add_ons): ModuleList()
)
Saved prune model models/prunefrom398per0.3/prune.pth
Number of Parameters: 0.0M
Epoch: 0, Validation Loss: 5.2281, Validation Regression Loss 2.8792, Validation Classification Loss: 2.3489
Saved model models/prunefrom398per0.3/Epoch-0-Loss-5.228137765611921.pth
Epoch: 10, Validation Loss: 4.7017, Validation Regression Loss 2.4396, Validation Classification Loss: 2.2621
…
