root-- VOC2007
Pruning round 1, load model from models/ep1000ws1pr/mb1-ssd-lite-Epoch-945-Loss-3.2492578540529524.pth
SSD(
  (base_net): Sequential(
    (0): Sequential(
      (0): Conv2d(3, 17, kernel_size=(3, 3), stride=(2, 2), padding=(1, 1), bias=False)
      (1): BatchNorm2d(17, eps=1e-05, momentum=0.1, affine=True, track_running_stats=True)
      (2): ReLU(inplace=True)
    )
    (1): Sequential(
      (0): Conv2d(17, 17, kernel_size=(3, 3), stride=(1, 1), padding=(1, 1), groups=17, bias=False)
      (1): BatchNorm2d(17, eps=1e-05, momentum=0.1, affine=True, track_running_stats=True)
      (2): ReLU(inplace=True)
      (3): Conv2d(17, 32, kernel_size=(1, 1), stride=(1, 1), bias=False)
      (4): BatchNorm2d(32, eps=1e-05, momentum=0.1, affine=True, track_running_stats=True)
      (5): ReLU(inplace=True)
    )
    (2): Sequential(
      (0): Conv2d(32, 32, kernel_size=(3, 3), stride=(2, 2), padding=(1, 1), groups=32, bias=False)
      (1): BatchNorm2d(32, eps=1e-05, momentum=0.1, affine=True, track_running_stats=True)
      (2): ReLU(inplace=True)
      (3): Conv2d(32, 63, kernel_size=(1, 1), stride=(1, 1), bias=False)
      (4): BatchNorm2d(63, eps=1e-05, momentum=0.1, affine=True, track_running_stats=True)
      (5): ReLU(inplace=True)
    )
    (3): Sequential(
      (0): Conv2d(63, 63, kernel_size=(3, 3), stride=(1, 1), padding=(1, 1), groups=63, bias=False)
      (1): BatchNorm2d(63, eps=1e-05, momentum=0.1, affine=True, track_running_stats=True)
      (2): ReLU(inplace=True)
      (3): Conv2d(63, 63, kernel_size=(1, 1), stride=(1, 1), bias=False)
      (4): BatchNorm2d(63, eps=1e-05, momentum=0.1, affine=True, track_running_stats=True)
      (5): ReLU(inplace=True)
    )
    (4): Sequential(
      (0): Conv2d(63, 63, kernel_size=(3, 3), stride=(2, 2), padding=(1, 1), groups=63, bias=False)
      (1): BatchNorm2d(63, eps=1e-05, momentum=0.1, affine=True, track_running_stats=True)
      (2): ReLU(inplace=True)
      (3): Conv2d(63, 126, kernel_size=(1, 1), stride=(1, 1), bias=False)
      (4): BatchNorm2d(126, eps=1e-05, momentum=0.1, affine=True, track_running_stats=True)
      (5): ReLU(inplace=True)
    )
    (5): Sequential(
      (0): Conv2d(126, 126, kernel_size=(3, 3), stride=(1, 1), padding=(1, 1), groups=126, bias=False)
      (1): BatchNorm2d(126, eps=1e-05, momentum=0.1, affine=True, track_running_stats=True)
      (2): ReLU(inplace=True)
      (3): Conv2d(126, 126, kernel_size=(1, 1), stride=(1, 1), bias=False)
      (4): BatchNorm2d(126, eps=1e-05, momentum=0.1, affine=True, track_running_stats=True)
      (5): ReLU(inplace=True)
    )
    (6): Sequential(
      (0): Conv2d(126, 126, kernel_size=(3, 3), stride=(2, 2), padding=(1, 1), groups=126, bias=False)
      (1): BatchNorm2d(126, eps=1e-05, momentum=0.1, affine=True, track_running_stats=True)
      (2): ReLU(inplace=True)
      (3): Conv2d(126, 252, kernel_size=(1, 1), stride=(1, 1), bias=False)
      (4): BatchNorm2d(252, eps=1e-05, momentum=0.1, affine=True, track_running_stats=True)
      (5): ReLU(inplace=True)
    )
    (7): Sequential(
      (0): Conv2d(252, 252, kernel_size=(3, 3), stride=(1, 1), padding=(1, 1), groups=252, bias=False)
      (1): BatchNorm2d(252, eps=1e-05, momentum=0.1, affine=True, track_running_stats=True)
      (2): ReLU(inplace=True)
      (3): Conv2d(252, 252, kernel_size=(1, 1), stride=(1, 1), bias=False)
      (4): BatchNorm2d(252, eps=1e-05, momentum=0.1, affine=True, track_running_stats=True)
      (5): ReLU(inplace=True)
    )
    (8): Sequential(
      (0): Conv2d(252, 252, kernel_size=(3, 3), stride=(1, 1), padding=(1, 1), groups=252, bias=False)
      (1): BatchNorm2d(252, eps=1e-05, momentum=0.1, affine=True, track_running_stats=True)
      (2): ReLU(inplace=True)
      (3): Conv2d(252, 252, kernel_size=(1, 1), stride=(1, 1), bias=False)
      (4): BatchNorm2d(252, eps=1e-05, momentum=0.1, affine=True, track_running_stats=True)
      (5): ReLU(inplace=True)
    )
    (9): Sequential(
      (0): Conv2d(252, 252, kernel_size=(3, 3), stride=(1, 1), padding=(1, 1), groups=252, bias=False)
      (1): BatchNorm2d(252, eps=1e-05, momentum=0.1, affine=True, track_running_stats=True)
      (2): ReLU(inplace=True)
      (3): Conv2d(252, 252, kernel_size=(1, 1), stride=(1, 1), bias=False)
      (4): BatchNorm2d(252, eps=1e-05, momentum=0.1, affine=True, track_running_stats=True)
      (5): ReLU(inplace=True)
    )
    (10): Sequential(
      (0): Conv2d(252, 252, kernel_size=(3, 3), stride=(1, 1), padding=(1, 1), groups=252, bias=False)
      (1): BatchNorm2d(252, eps=1e-05, momentum=0.1, affine=True, track_running_stats=True)
      (2): ReLU(inplace=True)
      (3): Conv2d(252, 252, kernel_size=(1, 1), stride=(1, 1), bias=False)
      (4): BatchNorm2d(252, eps=1e-05, momentum=0.1, affine=True, track_running_stats=True)
      (5): ReLU(inplace=True)
    )
    (11): Sequential(
      (0): Conv2d(252, 252, kernel_size=(3, 3), stride=(1, 1), padding=(1, 1), groups=252, bias=False)
      (1): BatchNorm2d(252, eps=1e-05, momentum=0.1, affine=True, track_running_stats=True)
      (2): ReLU(inplace=True)
      (3): Conv2d(252, 124, kernel_size=(1, 1), stride=(1, 1), bias=False)
      (4): BatchNorm2d(124, eps=1e-05, momentum=0.1, affine=True, track_running_stats=True)
      (5): ReLU(inplace=True)
    )
    (12): Sequential(
      (0): Conv2d(124, 124, kernel_size=(3, 3), stride=(2, 2), padding=(1, 1), groups=124, bias=False)
      (1): BatchNorm2d(124, eps=1e-05, momentum=0.1, affine=True, track_running_stats=True)
      (2): ReLU(inplace=True)
      (3): Conv2d(124, 502, kernel_size=(1, 1), stride=(1, 1), bias=False)
      (4): BatchNorm2d(502, eps=1e-05, momentum=0.1, affine=True, track_running_stats=True)
      (5): ReLU(inplace=True)
    )
    (13): Sequential(
      (0): Conv2d(502, 502, kernel_size=(3, 3), stride=(1, 1), padding=(1, 1), groups=502, bias=False)
      (1): BatchNorm2d(502, eps=1e-05, momentum=0.1, affine=True, track_running_stats=True)
      (2): ReLU(inplace=True)
      (3): Conv2d(502, 352, kernel_size=(1, 1), stride=(1, 1), bias=False)
      (4): BatchNorm2d(352, eps=1e-05, momentum=0.1, affine=True, track_running_stats=True)
      (5): ReLU(inplace=True)
    )
  )
  (extras): ModuleList(
    (0): Sequential(
      (0): Conv2d(352, 126, kernel_size=(1, 1), stride=(1, 1))
      (1): ReLU()
      (2): Sequential(
        (0): Conv2d(126, 126, kernel_size=(3, 3), stride=(2, 2), padding=(1, 1), groups=126)
        (1): ReLU()
        (2): Conv2d(126, 177, kernel_size=(1, 1), stride=(1, 1))
      )
    )
    (1): Sequential(
      (0): Conv2d(177, 63, kernel_size=(1, 1), stride=(1, 1))
      (1): ReLU()
      (2): Sequential(
        (0): Conv2d(63, 63, kernel_size=(3, 3), stride=(2, 2), padding=(1, 1), groups=63)
        (1): ReLU()
        (2): Conv2d(63, 89, kernel_size=(1, 1), stride=(1, 1))
      )
    )
    (2): Sequential(
      (0): Conv2d(89, 63, kernel_size=(1, 1), stride=(1, 1))
      (1): ReLU()
      (2): Sequential(
        (0): Conv2d(63, 63, kernel_size=(3, 3), stride=(2, 2), padding=(1, 1), groups=63)
        (1): ReLU()
        (2): Conv2d(63, 89, kernel_size=(1, 1), stride=(1, 1))
      )
    )
    (3): Sequential(
      (0): Conv2d(89, 63, kernel_size=(1, 1), stride=(1, 1))
      (1): ReLU()
      (2): Sequential(
        (0): Conv2d(63, 63, kernel_size=(3, 3), stride=(2, 2), padding=(1, 1), groups=63)
        (1): ReLU()
        (2): Conv2d(63, 180, kernel_size=(1, 1), stride=(1, 1))
      )
    )
  )
  (classification_headers): ModuleList(
    (0): Sequential(
      (0): Conv2d(124, 124, kernel_size=(3, 3), stride=(1, 1), padding=(1, 1), groups=124)
      (1): ReLU()
      (2): Conv2d(124, 12, kernel_size=(1, 1), stride=(1, 1))
    )
    (1): Sequential(
      (0): Conv2d(352, 352, kernel_size=(3, 3), stride=(1, 1), padding=(1, 1), groups=352)
      (1): ReLU()
      (2): Conv2d(352, 12, kernel_size=(1, 1), stride=(1, 1))
    )
    (2): Sequential(
      (0): Conv2d(177, 177, kernel_size=(3, 3), stride=(1, 1), padding=(1, 1), groups=177)
      (1): ReLU()
      (2): Conv2d(177, 12, kernel_size=(1, 1), stride=(1, 1))
    )
    (3): Sequential(
      (0): Conv2d(89, 89, kernel_size=(3, 3), stride=(1, 1), padding=(1, 1), groups=89)
      (1): ReLU()
      (2): Conv2d(89, 12, kernel_size=(1, 1), stride=(1, 1))
    )
    (4): Sequential(
      (0): Conv2d(89, 89, kernel_size=(3, 3), stride=(1, 1), padding=(1, 1), groups=89)
      (1): ReLU()
      (2): Conv2d(89, 12, kernel_size=(1, 1), stride=(1, 1))
    )
    (5): Conv2d(180, 12, kernel_size=(1, 1), stride=(1, 1))
  )
  (regression_headers): ModuleList(
    (0): Sequential(
      (0): Conv2d(124, 124, kernel_size=(3, 3), stride=(1, 1), padding=(1, 1), groups=124)
      (1): ReLU()
      (2): Conv2d(124, 24, kernel_size=(1, 1), stride=(1, 1))
    )
    (1): Sequential(
      (0): Conv2d(352, 352, kernel_size=(3, 3), stride=(1, 1), padding=(1, 1), groups=352)
      (1): ReLU()
      (2): Conv2d(352, 24, kernel_size=(1, 1), stride=(1, 1))
    )
    (2): Sequential(
      (0): Conv2d(177, 177, kernel_size=(3, 3), stride=(1, 1), padding=(1, 1), groups=177)
      (1): ReLU()
      (2): Conv2d(177, 24, kernel_size=(1, 1), stride=(1, 1))
    )
    (3): Sequential(
      (0): Conv2d(89, 89, kernel_size=(3, 3), stride=(1, 1), padding=(1, 1), groups=89)
      (1): ReLU()
      (2): Conv2d(89, 24, kernel_size=(1, 1), stride=(1, 1))
    )
    (4): Sequential(
      (0): Conv2d(89, 89, kernel_size=(3, 3), stride=(1, 1), padding=(1, 1), groups=89)
      (1): ReLU()
      (2): Conv2d(89, 24, kernel_size=(1, 1), stride=(1, 1))
    )
    (5): Conv2d(180, 24, kernel_size=(1, 1), stride=(1, 1))
  )
  (source_layer_add_ons): ModuleList()
)
Saved prune model models/prunefromws1per0.3/prune.pth
Number of Parameters: 0.8M
Epoch: 0, Validation Loss: 4.3113, Validation Regression Loss 2.1425, Validation Classification Loss: 2.1688
Saved model models/prunefromws1per0.3/Epoch-0-Loss-4.311328853879656.pth
Epoch: 10, Validation Loss: 3.5726, Validation Regression Loss 1.4879, Validation Classification Loss: 2.0847
…
